kubernetes/apps/default/openwakeword/app/resources/juh_ba.tflite (tflite, 206748 bytes, 9 tensors)

Const_1 f4 [32]
000000 63 1a e2 3b d4 35 55 3c 30 47 9d 3b c9 ac 19 3c
       0.006900118 0.013013322 0.004799746 0.009379574
000010 69 0b f0 bc be 4f 96 bc a5 36 7d bc 50 17 66 bc
       -0.029302316 -0.01834857 -0.015454923 -0.014043644
000020 96 f8 8f bc ba 04 c0 3c 79 71 9d bc 52 bc 62 3b
       -0.01757459 0.023439754 -0.019219147 0.003459711
000030 04 2b 2b 3b 03 d2 be bc 4f e9 32 bc 30 d6 e2 bc
       0.0026118169 -0.0232935 -0.010919883 -0.027690023
000040 c8 0b 82 bc b3 42 c5 bc ea 74 13 bc 6c 71 ad bc
       -0.015874758 -0.024079656 -0.009000042 -0.021172248
000050 58 87 89 39 9d b0 66 3c d6 00 1e bc fe e5 ce bc
       0.00026231515 0.014080194 -0.009643754 -0.025256153
000060 8a 8b ae 3c 62 7a 9f bc a7 78 74 bb d8 b6 7d 3c
       0.021306772 -0.019467536 -0.003730336 0.015485488
000070 26 10 17 3c a1 f9 ee 3c 59 f5 8a bc fd a3 4b bc
       0.009220159 0.029171767 -0.016962694 -0.012429235

Const_2 f4 [32]
000000 9e f4 81 3f 54 ca 81 3f 2b 57 7e 3f 58 f3 7e 3f
       1.0152776 1.0139871 0.9935176 0.99590063
000010 b9 5c 86 3f 1b 7d 7f 3f b1 49 80 3f 07 d8 82 3f
       1.0497047 0.9980027 1.0022489 1.0222176
000020 40 84 7d 3f 52 32 82 3f 90 84 7f 3f b9 f3 7e 3f
       0.9902992 1.0171607 0.9981165 0.9959064
000030 f0 0e 7f 3f 84 3d 7d 3f 20 34 80 3f 9e 0d 7d 3f
       0.9963217 0.9892199 1.0015907 0.98848903
000040 fc 82 7f 3f d5 ed 80 3f 6b 16 84 3f 8a 95 79 3f
       0.9980924 1.007258 1.0319341 0.97493804
000050 11 76 7f 3f 22 4a 81 3f 7c 22 7e 3f db 05 8a 3f
       0.9978953 1.0100749 0.9927137 1.0783037
000060 43 6c 7f 3f aa e6 81 3f c5 92 83 3f ee fb 82 3f
       0.9977457 1.0148518 1.0279166 1.0233133
000070 f5 74 86 3f c7 66 82 3f 06 c3 78 3f 21 e3 77 3f
       1.0504442 1.0187615 0.9717258 0.96830946

Const_3 f4 [32]
000000 5d c7 04 3d 1e a7 a2 3c bf 3d 8c 3c 52 e8 5b bb
       0.03241669 0.019855078 0.017119287 -0.0033555222
000010 71 d7 22 3d ee fe 07 bc 95 33 40 3c 5e 3f 78 3d
       0.039756242 -0.008300526 0.011731048 0.060607307
000020 10 c6 97 3c 3d eb d7 3c 23 ab b8 bb 71 93 14 3d
       0.01852706 0.026357288 -0.0056356355 0.036273424
000030 b5 81 39 bb 41 25 15 3c bc 46 69 3c 25 86 ff bc
       -0.0028306071 0.00910312 0.014238056 -0.031191895
000040 0f 4a 43 bc 2f b1 b7 3b 83 2f 33 3d 6e 00 fe 3c
       -0.011919512 0.0056058387 0.043746483 0.031006064
000050 e8 c4 f1 bb f1 a3 75 3c a1 9b 22 bb 2d e3 7a 3d
       -0.0073782094 0.0149927 -0.0024812 0.061251808
000060 3f 01 10 bc a8 c9 bb 3a ab d9 f0 3c eb 67 92 3c
       -0.00878936 0.0014327066 0.029400667 0.017871818
000070 da 65 b7 3c cd dc cd 3c 92 5a 40 3c 47 fd 48 3c
       0.022387434 0.0251297 0.011740344 0.012267417

Const_5 f4 [32]
000000 db 2e 7a bd 19 a1 21 be 39 67 e9 bd 07 a5 73 bd
       -0.06107984 -0.1578411 -0.11396641 -0.059483554
000010 04 62 0e 3e cc de 76 bd 74 40 eb 3d e1 0a ef 3d
       0.13904577 -0.06027107 0.11486903 0.11671997
000020 66 10 0f 3e da c5 4e bd 36 24 1d 3e 81 93 2e bd
       0.139711 -0.050481655 0.15345845 -0.04262114
000030 7d 4b 74 3d d4 50 23 3e 44 6d 35 3e d0 5b 17 3e
       0.059642304 0.15948802 0.17717463 0.14781117
000040 1f ac b6 bd 0c aa 1e 3e 3f 1d 8e 3d 76 3b 90 bd
       -0.08919548 0.15494555 0.06939172 -0.07042591
000050 36 88 92 3c 2c 37 66 bc 78 85 08 3d ea 7c 9f 3d
       0.017887216 -0.01405124 0.03333041 0.07787497
000060 40 43 ee bd 28 72 3c 3e 07 f6 4f 3d 5a 8f 86 3d
       -0.11633921 0.18402922 0.05077174 0.06570311
000070 95 79 fa bd 15 c4 ca bd 5e 28 0d 3e be 04 57 bd
       -0.12230221 -0.09900681 0.1378493 -0.052494757

Const_6 f4 [32]
000000 56 23 87 3f 79 2a 9e 3f fb 39 89 3f e2 7b 80 3f
       1.0557659 1.2356712 1.0720819 1.0037806
000010 2a d1 80 3f 78 67 a6 3f 38 ad a4 3f 25 ba 81 3f
       1.0063832 1.3000326 1.2865362 1.0134932
000020 46 79 9a 3f 3e 37 89 3f 91 2a 7f 3f 95 44 8a 3f
       1.206826 1.0719984 0.99674326 1.080218
000030 d2 9a 7f 3f 6f c4 8a 3f 13 d9 ae 3f 36 0d 80 3f
       0.9984561 1.0841197 1.3659996 1.0004032
000040 9a b3 78 3f ef 7d a2 3f 18 89 87 3f 54 44 7e 3f
       0.9714905 1.2694682 1.0588713 0.9932301
000050 53 e0 81 3f 67 7f 88 3f 99 e1 7f 3f e3 e5 82 3f
       1.0146583 1.066388 0.9995361 1.0226406
000060 ac 5c 89 3f 53 5e a1 3f 41 e8 7d 3f b1 03 a6 3f
       1.0731406 1.260691 0.99182516 1.2969877
000070 18 91 80 3f d9 23 a1 3f 54 e3 83 3f e1 b1 90 3f
       1.0044279 1.2589065 1.030375 1.1304284

Const_7 f4 [32]
000000 fa 44 d8 3c 2b 76 80 3e 7b 50 f3 3c f9 21 36 3b
       0.026400078 0.25090155 0.029701462 0.0027791245
000010 a9 ce 6a 3c 5c 69 8d 3e 9a 47 8a 3e ee 59 8b 3c
       0.014331498 0.27619445 0.27007753 0.017010655
000020 12 62 75 3e 4d ad 9f 3d 0a 04 45 bc d6 27 07 3d
       0.23963192 0.077967264 -0.012024889 0.032996975
000030 58 ba 54 bb d3 9a 06 3d d0 06 9a 3e 9c 74 b0 3c
       -0.0032459702 0.032862496 0.30083323 0.021539979
000040 12 d3 b1 bc a7 68 85 3e 72 45 37 3d a2 f2 46 bc
       -0.021707091 0.26056406 0.044743963 -0.012142809
000050 10 1e 50 3c 97 b6 1c 3d ed bf 81 ba a2 15 e7 3c
       0.01270248 0.03826007 -0.0009899117 0.028208558
000060 ff a1 48 3d 06 39 84 3e 42 2d 3c bc cc 15 8b 3e
       0.048982617 0.25824755 -0.0114854 0.27165067
000070 b8 23 a8 3b 33 88 83 3e e8 74 49 bb 0b 0e 99 3d
       0.005131211 0.2568985 -0.0030739848 0.074733816

MatMul f4 [32, 1536]
000000 98 af 58 3c f3 86 da 3c 29 ae af bc 5c ed 29 bc
       0.013225459 0.026675677 -0.02144535 -0.010371532
000010 64 66 4c ba e8 27 a1 bc f2 5c 16 bc c5 6f 0a bc
       -0.000779724 -0.01967235 -0.009177433 -0.0084494995
000020 29 ca c8 bc e3 6f 5d 3c df 1b 02 3c 95 85 57 bd
       -0.02451046 0.013515445 0.007941215 -0.052617628
000030 ac af ab bc c2 dc ff 3c b0 70 3c bb 1b 1d f1 bb
       -0.02095779 0.031233195 -0.002875369 -0.007358206
000040 2b 53 91 3c 6a 76 40 3c 6c ab 04 3c f9 d3 f0 bc
       0.017739853 0.011746982 0.008097511 -0.029397951
000050 38 28 b8 bc ac 54 3c 3c 5a ce a1 bc ac aa d5 bb
       -0.022480115 0.011494797 -0.019751716 -0.00652059
000060 d1 fa 74 3c 18 55 0f 3b 30 17 a8 bb 73 a4 c7 3a
       0.014952377 0.0021870788 -0.0051297173 0.0015231505
000070 a1 ac 5f 3c fc f2 6d 3c 9e 32 68 3c f0 c4 a6 3b
       0.013651998 0.014523264 0.014172224 0.0050893947
000080 7b cb a3 3c 1e a6 ac ba 8f de 85 bc 9f 02 96 bb
       0.019994488 -0.0013172065 -0.016341476 -0.004577949
000090 39 fc 87 bc a3 70 fc 3b eb 35 47 3c 2d c5 56 3c
       -0.016599761 0.007703857 0.012158851 0.013108534
0000a0 db cf 05 bd a6 12 1c 3d c7 db fc bb 35 80 32 bc
       -0.03266893 0.038103722 -0.007716629 -0.010894825
0000b0 3e ae 24 bd 73 17 95 bc 90 6d be bc 30 d2 23 3c
       -0.040205233 -0.018199658 -0.023245603 0.009998843
0000c0 94 cc 33 bd 7d f9 a9 3b c9 ca cd 3b 53 8d a2 3c
       -0.043896273 0.005187212 0.0062802774 0.01984278
0000d0 da de d5 bc 6b aa c5 3c d1 05 1a bc 63 b8 bd bc
       -0.02610724 0.024129113 -0.009400801 -0.023159212
0000e0 8b be f2 bc 0c fc 31 bc 0c b0 56 bc c3 99 36 3b
       -0.029631874 -0.010863315 -0.013103496 0.0027862645
0000f0 62 3d a9 3c e3 ca 0c 3c 55 e4 21 3d e5 ca 63 bc
       0.020659152 0.008593294 0.039524395 -0.013903354
000100 82 36 c9 bc 23 e2 81 3a 1a 3e 89 3c f7 87 ac bc
       -0.024562124 0.0009909313 0.016753245 -0.021060927
000110 c3 66 ba bb 65 3f 56 bd 2a 1b 50 ba 8d 7b b7 bb
       -0.0056885197 -0.05230655 -0.0007938618 -0.005599445
000120 7f d8 f1 3b 3d d5 c5 3c d6 0c 7e 3c 67 31 97 3c
       0.0073805447 0.024149531 0.01550599 0.018456174
000130 62 2b f0 bc 6b 7b 3b bd d7 3a dd 3a c6 50 58 bb
       -0.029317562 -0.045771997 0.0016878498 -0.003300713
000140 40 87 16 bc f0 c1 a1 3c b3 f5 3f bc ef a2 76 3c
       -0.00918752 0.019745797 -0.011716294 0.015053495
000150 f9 3b a4 bc 35 e0 1c 3b d1 ac d8 bc 21 69 4f bd
       -0.020048128 0.0023937349 -0.026449593 -0.050637368
000160 b3 30 39 3b 91 cb 4c 3c 49 7b 89 bc 46 5f 58 3c
       0.0028257787 0.012499706 -0.01678242 0.013206309
000170 1f 31 ab 3c 47 a9 fc bb 6e 17 2b 3d 77 7d bb bb
       0.020897446 -0.007710609 0.04177039 -0.0057217437
000180 36 d8 5e bc 4f 95 b0 3c d6 9b 46 bc cc 10 22 bc
       -0.013601353 0.02155557 -0.012122115 -0.0098917
000190 aa ca b3 3b 75 d8 a1 3c bc 4b c9 3c 3a 98 dc bb
       0.005486806 0.019756535 0.024572246 -0.006732014
0001a0 1e b3 ec bc da 05 84 3c 55 79 47 bc 6c c7 88 3b
       -0.028894003 0.016116071 -0.012174924 0.0041741636
0001b0 8b 22 89 ba 2a 9a c9 bb fe 36 85 3c 1d 92 ad bc
       -0.0010462565 -0.006152411 0.016261574 -0.021187836
0001c0 ed 43 9a bc 6d 08 4d 3b 0d a2 2a bc 96 b6 fa bc
       -0.018831218 0.003128554 -0.0104146125 -0.030604642
0001d0 14 12 47 bb 7a c9 5d 3c fc 0d 76 3c 00 00 3e bb
       -0.0030375766 0.013536805 0.015017983 -0.00289917
0001e0 ac 55 07 3d d2 43 87 bc 2e 9c a1 bc eb de f3 3a
       0.033040687 -0.016511831 -0.019727793 0.0018605863
0001f0 f6 69 e9 bb 21 85 f0 ba 56 1a 31 bc 03 73 34 bc
       -0.007123227 -0.0018350222 -0.010809502 -0.011013749
000200 31 2b 87 bc 5d d3 16 bd a1 d4 2d 3b fb 81 d7 3c
       -0.016500087 -0.036822665 0.0026524442 0.026307097
000210 01 e4 c8 3b 5e 7b f0 3a de e0 01 3c 05 41 37 bc
       0.006130696 0.0018347313 0.007927148 -0.011184935
000220 2e 94 ec bc f2 6c 92 3c 4e 25 09 3c 9a 16 07 bc
       -0.028879251 0.017874215 0.008370711 -0.008245135
000230 f5 48 93 bc 25 a9 e3 3b cd 9e fe bb 60 56 c9 bc
       -0.017979125 0.006947654 -0.0077703954 -0.02457732
000240 dc c4 63 3c 01 d3 f8 ba 61 5f 15 bb 7a 4a 35 3b
       0.013901915 -0.0018983783 -0.0022792446 0.00276628
000250 c0 28 0a 3b 7b ef 02 3d 22 22 c1 bb d8 ff f9 bb
       0.0021081418 0.031966668 -0.0058939615 -0.007629376
000260 83 33 31 bc 6c e8 11 bb 35 2f 6a bc 57 29 66 3c
       -0.010815504 -0.0022263778 -0.014293482 0.014047942
000270 f3 94 a5 bc f6 02 bd 39 b5 80 be 3c 1e 44 3f bb
       -0.020212626 0.00036051095 0.023254732 -0.0029184888
000280 b6 11 e1 bb ba 01 a1 3c 95 f8 5d bc f4 34 a5 bc
       -0.0068685664 0.019654144 -0.013548036 -0.020166852
000290 5e 76 57 bc ec 06 4b bd e4 8c e5 bb 02 61 bb 3c
       -0.0131507795 -0.049567148 -0.007005321 0.022873405
0002a0 d6 65 c2 3c 45 2c cd bb 4b 90 7e bb 1c 88 00 bb
       0.0237302 -0.006261381 -0.003884333 -0.0019612378
0002b0 7f b7 88 bc 38 51 9f bc 29 1b 76 bc 21 22 66 3c
       -0.01668906 -0.019447908 -0.015021124 0.014046223
0002c0 3a 83 7b 3c 87 f7 c0 3c 97 bd 48 3c 95 ce d8 bb
       0.015351111 0.02355553 0.012252233 -0.0066164234
0002d0 b9 ea af 3a bb 3a 17 bd 9f 32 96 3c 83 66 36 bd
       0.0013421393 -0.036921244 0.018334685 -0.044531357
0002e0 05 06 1a 3b 60 24 7c bc 8b 1d ce 3c c5 31 a3 bc
       0.0023502123 -0.015389532 0.025160572 -0.019921193
0002f0 7e 94 22 bc 2d c3 03 3a a6 06 45 3d 89 19 aa 3c
       -0.009923099 0.0005026337 0.048102044 0.02076413
000300 5c 65 e8 bb 5c 73 01 3d 10 94 83 3c de e7 5a bc
       -0.007092161 0.031604156 0.016061813 -0.0133609455
000310 de 9a d1 bb a0 2a 9d 3b 56 cc 94 3c 6a 75 0f bc
       -0.0063966354 0.004796341 0.018163841 -0.008756021
000320 63 61 22 bd 44 63 c6 bc b4 cd df 3c d5 b0 f7 3b
       -0.039643656 -0.024217255 0.027319767 0.007558922
000330 de 58 1c 3c ce 83 4c bb 81 4b f8 3c ec 98 c5 bc
       0.009542672 -0.0031206491 0.03030944 -0.02412077
000340 65 fe c9 3b d0 b6 16 bb 40 d8 fe 3c 79 a1 a1 3c
       0.0061643594 -0.0022997148 0.031108975 0.019730316
000350 41 c3 44 bb a9 ff 8c bb ac d1 05 3c 74 41 de bb
       -0.0030023607 -0.004302938 0.008167665 -0.006782705
000360 3c 43 5c 3c 58 f0 3f bc b3 f4 9c bc aa 13 07 3d
       0.013443764 -0.011715017 -0.01915965 0.032977737
000370 a3 3a 16 3c b9 f5 30 bc e4 25 55 3c 00 98 c3 bc
       0.0091692535 -0.010800772 0.013009522 -0.02387619
000380 11 83 26 3c a9 f0 2b bd b6 78 80 ba e8 a2 13 3c
       0.010163085 -0.04197756 -0.00098016 0.009011008
000390 ec 23 12 39 bf de 80 bb 49 82 50 3d e2 fb 86 bc
       0.00013937027 -0.0039328034 0.0509055 -0.016477529
0003a0 d9 c0 83 3c 0f e2 3d bb 7e 9c da 3b c5 a6 a4 bc
       0.016083168 -0.0028973853 0.0066714874 -0.020099053
0003b0 a9 f4 39 bc 0c de ee bb e4 fb 76 bb 21 ec 5f bb
       -0.011349835 -0.0072896536 -0.003768676 -0.0034167843
0003c0 df 39 a4 bc f9 b9 05 3d 04 10 70 3c 93 3a 08 3c
       -0.020047126 0.03264806 0.014652256 0.008314746
0003d0 0e 45 8b bc 89 39 dd bc 32 23 d1 3b 8a a1 0b bd
       -0.017000701 -0.027004974 0.0063823694 -0.034089603
0003e0 e5 34 6e bb 52 f8 46 3c d8 c7 12 bb 9f 11 62 3c
       -0.0036347446 0.012144165 -0.0022396948 0.0137981465
0003f0 1e da 0f bc 54 d7 0b bb d1 38 e3 3c 3e 43 dc bc
       -0.0087800305 -0.0021338062 0.027737053 -0.026887532

MatMul_1 f4 [32, 32]
000000 65 fd ea 3c 88 f4 e2 3d cf 6b 11 be 28 9c 37 bc
       0.028685281 0.11081797 -0.14201282 -0.011206664
000010 8c dc 58 3e 28 3a a8 bd 2a e6 e9 bd 76 2e df bd
       0.21177882 -0.082142174 -0.114208534 -0.108975336
000020 9c 1c bf 3d 4c 79 e2 bd 93 28 18 be 2e 6e 32 3e
       0.09331629 -0.11058292 -0.14859228 0.17424843
000030 16 ea 2d be f6 b2 c5 bd c8 56 9e bd ff 5d a9 bd
       -0.16983828 -0.09653275 -0.07731396 -0.082698815
000040 90 b4 d8 3d 2d eb a5 3d cd 27 09 3e 29 97 f4 3d
       0.105813146 0.08101497 0.13394089 0.11942894
000050 a2 44 b8 3d e9 72 af 3b 4e ab 75 3b 23 66 5b bd
       0.08997466 0.0053542745 0.0037486139 -0.053564202
000060 ed 0f f4 3d 8d 59 22 3e 44 72 fe 3d 5b 32 eb 3d
       0.119171 0.15854473 0.12424138 0.11484214
000070 49 9c 17 be ee 06 c0 bd d2 8e 9e bd a3 94 1e 3e
       -0.14805712 -0.09376322 -0.077420846 0.15486388
000080 ac 9f 88 3a 72 4c 3d 3d 62 66 36 3e a9 a8 04 be
       0.0010423562 0.046215482 0.17812493 -0.12954964
000090 25 ae 0b 3e e6 c2 e3 3d ee a2 0c 3e 3a 4c 26 be
       0.1364065 0.11121158 0.13734028 -0.16240016
0000a0 6c 3b ed bd f2 57 33 3e 78 d8 8b bd ca 7f ad bd
       -0.115835994 0.17514017 -0.068283975 -0.084716395
0000b0 ec 94 90 3b 0b 40 1c 3e 08 b5 db 3c d3 9c 8a 3d
       0.004412284 0.15258805 0.02681972 0.06768193
0000c0 8e 16 ee ba 06 f7 a8 bd 7f 16 60 3d 7e 88 6b 3d
       -0.0018164681 -0.08250241 0.054708954 0.057503216
0000d0 05 3f 2d be f4 b7 0a 3e 38 b1 0d be 12 44 eb bb
       -0.16918571 0.13546735 -0.13837135 -0.0071797455
0000e0 5b d1 00 be 92 4a 7c 3d 34 18 0a be 3f 04 5d 3d
       -0.12579863 0.061594553 -0.13485795 0.053959128
0000f0 b0 4c b4 bc 25 c3 d6 3d df 96 3c 3e bd 30 15 3e
       -0.022009224 0.104864396 0.18416928 0.14569373
000100 3f b9 24 3e f1 a4 6a bd d0 b4 68 3d 68 1a 82 bd
       0.16086291 -0.057286207 0.05681306 -0.06352693
000110 2d c0 17 3e 64 e2 8c 3b 46 3d c5 bb 21 8b 67 3d
       0.14819403 0.004299449 -0.0060192673 0.056529168
000120 ee bd b6 bc d1 fa d4 3d 41 17 4c 3d 27 d4 d0 3d
       -0.022307362 0.10399402 0.049826864 0.10196715
000130 e8 c5 8d 3c 4b ab cd 3d cc a6 35 be db f2 01 be
       0.017306283 0.10042437 -0.17739409 -0.12690298
000140 f9 1b 10 3e 9d ca 0e bd fc a4 c5 3d 9c 6f aa 3d
       0.1407317 -0.034861196 0.09650609 0.08322069
000150 6e 18 07 3d 09 37 8f 3d 11 ff 08 be 7d 3e 3d 3c
       0.032982282 0.06992919 -0.1337855 0.011550543
000160 eb 8f f4 3d 3b 58 09 bd 3e 70 36 bc fc 49 b4 3d
       0.11941513 -0.03353141 -0.011135159 0.08803174
000170 76 e3 f1 bd 1a db b3 bd 61 3c 1c bd 8b 4b b7 bd
       -0.11810963 -0.08782025 -0.03814352 -0.089499556
000180 c0 8f 82 bd 56 42 f0 bd 9b 06 00 3e 8b 07 a8 3d
       -0.063750744 -0.117314026 0.1250252 0.08204564
000190 ec 2e 3c 3e 24 ca 1c 3d e3 e3 8e bd 18 1c d5 3d
       0.18377274 0.038278714 -0.0697706 0.10405749
0001a0 52 7d 3f bd 87 0f ca 3c fe d6 16 3e 8f b2 30 3c
       -0.046750374 0.024665607 0.1473045 0.010784759
0001b0 f5 7d c4 3d 1c 9b 9c 3d 50 8a 54 3d b0 1b 26 3e
       0.09594337 0.07646772 0.051889718 0.162215
0001c0 32 80 a8 3d ce 64 1e 3e 24 8f 86 bc c9 19 c6 3d
       0.08227576 0.15468141 -0.016425677 0.09672887
0001d0 da 8c 95 3b 36 9c fd 3d ca c5 05 3e 2e c2 26 3e
       0.00456391 0.123833105 0.13063732 0.16285011
0001e0 19 1b e2 3d 93 d0 9c bb dc 76 4a 3e 15 fc 82 bd
       0.11040325 -0.004785606 0.19771904 -0.06395737
0001f0 c3 8a 79 bd e5 eb db 3d 6b 2c a5 3d f1 0b 69 bd
       -0.06092335 0.10738353 0.08065113 -0.056896154
000200 d2 d1 d5 3d 1a e3 16 bd 7f 09 96 3d 48 d4 c5 3d
       0.10440411 -0.036837675 0.0732603 0.0965963
000210 c8 0f 23 be 3c 7a 44 bd f1 9f f5 bd ae 9b 18 be
       -0.15923989 -0.047968134 -0.11993397 -0.14903137
000220 63 f5 0f 3e 98 75 73 3c 51 5a 40 bd 47 63 12 3d
       0.14058451 0.0148595795 -0.046961132 0.03573921
000230 42 ee 66 3d 39 dc 2f bd b1 e4 59 bc 44 0b fc bd
       0.056379564 -0.04293463 -0.013299153 -0.12306836
000240 82 88 1e 3e 7c 0d 2d 3e f0 12 9c 3d b4 a8 80 bd
       0.15481761 0.16899675 0.076207995 -0.062821776
000250 d0 f9 13 3e 1f 22 d8 bd 7a 97 0f 3e 15 34 ba bd
       0.14450765 -0.10553383 0.14022627 -0.09091965
000260 12 d7 06 3e 92 2c a4 bd 40 cc 0f be 17 84 8f bc
       0.1316798 -0.080163136 -0.14042759 -0.01751904
000270 a8 07 03 be da e6 04 be f9 92 e3 3d d6 70 7c 3c
       -0.1279589 -0.12978688 0.11112017 0.015407762
000280 6b 07 53 bd 63 48 86 3d a8 c0 23 be 9a f7 ed 3d
       -0.051520746 0.065567754 -0.15991461 0.11619492
000290 bf 48 38 3c 01 d1 06 bb bf d4 ab 3d ee 75 0b bb
       0.011247813 -0.0020571353 0.083901875 -0.0021280008
0002a0 8e ec 1e 3e c5 6d 22 3c 5a 08 0c be 5a a7 01 3e
       0.15519926 0.009913866 -0.13675061 0.12661496
0002b0 4d 0c 25 3e 2b 3e 73 bd c7 00 bf bd df 1c c7 3c
       0.16117974 -0.05938546 -0.0932632 0.024305759
0002c0 90 97 01 be e4 00 82 3c d2 08 38 bd 27 7d 35 be
       -0.12655473 0.015869565 -0.044930287 -0.17723523
0002d0 9b 3e 26 3e 64 ec 0a be 20 10 28 bd 14 8f d1 3d
       0.1623482 -0.13566738 -0.041031003 0.10232368
0002e0 15 7e 79 3c 03 85 c0 bd 5d e8 3b 3e 32 1c 01 3e
       0.015227814 -0.0940037 0.18350358 0.12608412
0002f0 04 11 0e 3e 7c e7 1f 3e fa 3b 9f bd 4d fd e4 3d
       0.13873678 0.15615648 -0.077751115 0.11181126
000300 20 83 7b bd 30 83 b0 3d 25 f7 8c 3d 4c 4e b6 3d
       -0.061404347 0.08618772 0.068830766 0.08901653
000310 34 1b 80 3c 83 7b 25 be c5 d7 ff 3d ff 6b f9 3d
       0.015637971 -0.16160397 0.12492327 0.12178802
000320 cb 2c 26 3d 28 b1 19 3e 22 8d e8 3d 63 cb 8a bd
       0.04057006 0.15008986 0.11355044 -0.06777074
000330 58 44 a3 bd b3 cf 65 bd 91 18 ee 3d 0c f9 20 3e
       -0.0797202 -0.05610628 0.116257794 0.15720004
000340 21 d6 b9 bd 9a 19 a3 3c 7a 2c d3 3d 83 00 25 bd
       -0.09074045 0.019909669 0.103112176 -0.04028369
000350 e6 c7 4c bd 7a bf 2f 3d 1d 95 29 bd b2 e4 70 bd
       -0.049995326 0.042907216 -0.04140197 -0.05881185
000360 6f 06 dd bc 1d 2f 72 bd 2c a4 b2 bc ce c6 13 3e
       -0.026980607 -0.059126962 -0.021806799 0.14431307
000370 69 8c 6f bd 97 74 97 3d f5 c1 99 bd ff 8f 0f be
       -0.058483515 0.073952846 -0.075076975 -0.14019774
000380 4c 69 1b be d0 f6 e9 3d 0f a8 d3 3d 4e 03 0d bd
       -0.15176886 0.11424029 0.10334789 -0.03442698
000390 91 1b 01 3e 04 fc 20 bd 4d 03 08 3d fb ff 1c 3e
       0.12608172 -0.03930284 0.033206273 0.15332024
0003a0 4e 6f c7 bd da 8f 4e be 22 d0 89 3c 4d 28 e9 3d
       -0.097380266 -0.20172063 0.016822878 0.1138464
0003b0 05 0a df 3d a8 d5 bd bd ed be f5 3d 42 a4 5d bc
       0.10890583 -0.09269267 0.11999307 -0.013527932
0003c0 16 0d 8a 3d a4 84 fe 3d d9 18 df bd 77 3e 85 3d
       0.06740777 0.12427643 -0.10893411 0.06506055
0003d0 f2 9d 23 be 2e a4 64 3d 13 53 c9 3d e7 d0 24 3d
       -0.1597822 0.055820636 0.09830298 0.040238287
0003e0 54 c7 61 3d 96 19 61 bd 91 b1 97 3d 09 1c f6 bd
       0.055121735 -0.05495604 0.07406915 -0.12017066
0003f0 9b 85 58 3d c7 70 5c bd 74 20 8f bd ad 19 1b be
       0.05286179 -0.05381849 -0.06988612 -0.15146513

MatMul_2 f4 [1, 32]
000000 83 ff 25 3e 92 c9 ac be 15 54 52 3e 0d 35 34 3e
       0.16210751 -0.33747536 0.20539887 0.17598362
000010 e3 81 9a bc d1 b2 a7 be 57 67 aa be 6c c8 70 bc
       -0.018860763 -0.32753614 -0.33281967 -0.014696222
000020 07 8a b6 be 0a fc 5f 3d 75 2b 72 3d 40 a7 0b 3e
       -0.35652182 0.054683723 0.059123475 0.1363802
000030 bc 3a f0 3d 81 47 3d 3e 36 64 b7 be ba 7a 19 be
       0.11729953 0.18484308 -0.35818642 -0.14988223
000040 a4 d9 6f bd 38 55 b1 be f1 fc d2 3d 3c 4d 06 3e
       -0.058557168 -0.3463533 0.10302151 0.131154
000050 5c a0 63 bd 74 7f 36 3e 41 e1 e6 3d 33 bf 83 3d
       -0.055572852 0.17822057 0.112734325 0.06432953
000060 c7 64 2a 3e 8b 1c b1 be f2 8c 2e bd 11 f1 b1 be
       0.16640006 -0.3459209 -0.042614885 -0.34754232
000070 38 8c 1a bd aa 79 af be d7 9b 47 3e 23 d4 51 3e
       -0.03773138 -0.3427251 0.19493042 0.2049108
